MODELS/best_model.onnx (onnx, 3419 bytes, 3 tensors)

wide.4.bias f4 [64]
-0.2611881 0.10352528 0.16415901 0.13937029 0.74882334 -0.14505157 -0.31852794 -0.17381598
0.98527485 -0.4593239 1.3048993 -0.03397098 -0.07346608 0.18087009 -0.0067511434 0.15352891
-0.4701626 -0.03747209 -0.14156783 0.49090374 0.07717183 0.10862744 0.20003997 0.5192682
-0.1644995 -0.016368791 -0.14707305 0.029654607 -0.08819492 0.16596225 0.9416292 -0.24857944
1.1767341 -0.18088543 -0.14023295 0.5983394 0.97245944 0.40142047 -0.31205732 0.0012582764
0.21628612 -0.113664255 -0.28426033 0.056895986 0.8040651 -0.39979425 -0.059908386 0.40968347
0.06504975 -0.6845684 0.0053882077 0.2630578 0.04057665 0.31309867 0.08018032 -0.035363466
-0.12534802 0.7194504 0.029891193 0.092710845 0.36690193 -0.03177853 0.22056498 -0.17107895
00000000: 72ba 85be 1005 d43d 4d19 283e 16b7 0e3e
00000010: e3b2 3f3f 6688 14be 1816 a3be d1fc 31be
00000020: f93a 7c3f 812c ebbe f106 a73f 2825 0bbd
00000030: 6275 96bd 0236 393e b238 ddbb af36 1d3e
00000040: 27b9 f0be 567c 19bd 28f7 10be bc57 fb3e
00000050: 440c 9e3d 1078 de3d 47d7 4c3e c3ee 043f
00000060: 8f72 28be d817 86bc 519a 16be 38ee f23c
00000070: 8a9f b4bd 02f2 293e 9c0e 713f 9c8b 7ebe
00000080: 399f 963f 083a 39be 3a99 0fbe c52c 193f
00000090: 1af3 783f fc86 cd3e fac5 9fbe c0ec a43a
000000a0: 1c7a 5d3e cec8 e8bd 928a 91be c40b 693d
000000b0: 36d7 4d3f d5b1 ccbe 7f62 75bd 08c2 d13e
000000c0: ce38 853d e03f 2fbf 908f b03b 83af 863e
000000d0: b433 263d 784e a03e 9435 a43d 48d9 10bd
000000e0: 3b5b 00be e72d 383f 60de f43c 2fdf bd3d
000000f0: 92da bb3e 342a 02bd c9db 613e 522f 2fbe

skip.bias f4 [64]
-0.14273001 -0.04172627 0.1362286 -0.22843331 0.017469468 -0.18143374 -0.08110736 -0.17592056
0.16586204 -0.18149613 -0.0934962 -0.054506373 -0.09954268 -0.04721246 -0.15577453 0.013771143
-0.2499307 -0.20781466 -0.28664172 0.020414295 0.13491097 -0.4283119 0.0060360874 0.024224414
-0.23047741 -0.34776306 -0.28618902 -0.39474446 0.09563101 -0.15162373 -0.19977897 -0.3663425
-0.09388005 -0.1947125 0.14584173 -0.4667781 -0.043357287 0.0875749 -0.20147961 0.14334616
0.20323826 -0.008866987 -0.33892536 -0.37208724 0.09125866 -0.118864335 -0.41843283 0.0011226247
0.07857647 -0.4242299 -0.47080666 -0.33551928 0.06736185 0.03506911 -0.49888203 0.24159741
-0.14083469 -0.16560827 0.20239578 -0.4048602 -0.01605822 -0.177266 0.19150628 0.015719594
00000000: d127 12be 2ae9 2abd 837f 0b3e 6cea 69be
00000010: 211c 8f3c c4c9 39be 9e1b a6bd 8524 34be
00000020: bdd7 293e 1fda 39be f07a bfbd 1342 5fbd
00000030: 08dd cbbd da61 41bd 5c83 1fbe 5ca0 613c
00000040: d5ed 7fbe 5ecd 54be b4c2 92be e13b a73c
00000050: 1a26 0a3e b34b dbbe 5fca c53b 4772 c63c
00000060: 4502 6cbe 000e b2be 5e87 92be f21b cabe
00000070: 31da c33d 4043 1bbe dc92 4cbe 3f91 bbbe
00000080: 2f44 c0bd b762 47be 8957 153e 8afd eebe
00000090: 6997 31bd 785a b33d ac50 4ebe 56c9 123e
000000a0: b11d 503e d746 11bc a087 adbe 3882 bebe
000000b0: d2e5 ba3d 256f f3bd d43c d6be 0925 933a
000000c0: b3ec a03d a934 d9be 920d f1be 2fc9 abbe
000000d0: 02f5 893d a1a4 0f3d 776d ffbe 5065 773e
000000e0: f836 10be 3795 29be d740 4f3e d649 cfbe
000000f0: 878c 83bc 3885 35be 391a 443e 61c6 803c

head.2.bias f4 [2]
-0.00069283316 0.0006961775
00000000: 3f9f 35ba ae7f 363a
